…
I0719 17:32:48.371043  6626 net.cpp:313] The NetState phase (0) differed from the phase (1) specified by a rule in layer accuracy@5
I0719 17:32:48.371186  6626 net.cpp:49] Initializing net from parameters: 
name: "AlexNet"
state {
  phase: TRAIN
}
layer {
  name: "data"
  type: "Data"
  top: "data"
  top: "label"
  include {
    phase: TRAIN
  }
  transform_param {
    mirror: false
    crop_size: 32
    mean_file: "/media/riseadmin/data2/amirsohail95/datasets/cifar100_lmdb/cifar100_mean.binaryproto"
  }
  data_param {
    source: "/media/riseadmin/data2/amirsohail95/datasets/cifar100_lmdb/cifar100_train_lmdb"
    batch_size: 250
    backend: LMDB
  }
}
layer {
  name: "conv1"
  type: "Convolution"
  bottom: "data"
  top: "conv1"
  param {
    lr_mult: 1
    decay_mult: 1
  }
  param {
    lr_mult: 2
    decay_mult: 0
  }
  convolution_param {
    num_output: 96
    pad: 1
    kernel_size: 5
    stride: 1
    weight_filler {
      type: "gaussian"
      std: 0.01
    }
    bias_filler {
      type: "constant"
      value: 0
    }
  }
}
layer {
  name: "relu1"
  type: "ReLU"
  bottom: "conv1"
  top: "conv1"
}
layer {
  name: "norm1"
  type: "LRN"
  bottom: "conv1"
  top: "norm1"
  lrn_param {
    local_size: 5
    alpha: 0.0001
    beta: 0.75
  }
}
layer {
  name: "pool1"
  type: "Pooling"
  bottom: "norm1"
  top: "pool1"
  pooling_param {
    pool: MAX
    kernel_size: 3
    stride: 2
  }
}
layer {
  name: "conv2"
  type: "Convolution"
  bottom: "pool1"
  top: "conv2"
  param {
    lr_mult: 1
    decay_mult: 1
  }
  param {
    lr_mult: 2
    decay_mult: 0
  }
  convolution_param {
    num_output: 256
    pad: 2
    kernel_size: 5
    group: 2
    stride: 1
    weight_filler {
      type: "gaussian"
      std: 0.01
    }
    bias_filler {
      type: "constant"
      value: 0.1
    }
  }
}
layer {
  name: "relu2"
  type: "ReLU"
  bottom: "conv2"
  top: "conv2"
}
layer {
  name: "norm2"
  type: "LRN"
  bottom: "conv2"
  top: "norm2"
  lrn_param {
    local_size: 5
    alpha: 0.0001
    beta: 0.75
  }
}
layer {
  name: "pool2"
  type: "Pooling"
  bottom: "norm2"
  top: "pool2"
  pooling_param {
    pool: MAX
    kernel_size: 2
    stride: 1
  }
}
layer {
  name: "conv3"
  type: "Convolution"
  bottom: "pool2"
  top: "conv3"
  param {
    lr_mult: 1
    decay_mult: 1
  }
  param {
    lr_mult: 2
    decay_mult: 0
  }
  convolution_param {
    num_output: 384
    pad: 1
    kernel_size: 3
    weight_filler {
      type: "gaussian"
      std: 0.01
    }
    bias_filler {
      type: "constant"
      value: 0
    }
  }
}
layer {
  name: "relu3"
  type: "ReLU"
  bottom: "conv3"
  top: "conv3"
}
layer {
  name: "conv4"
  type: "Convolution"
  bottom: "conv3"
  top: "conv4"
  param {
    lr_mult: 1
    decay_mult: 1
  }
  param {
    lr_mult: 2
    decay_mult: 0
  }
  convolution_param {
    num_output: 384
    pad: 1
    kernel_size: 3
    group: 2
    weight_filler {
      type: "gaussian"
      std: 0.01
    }
    bias_filler {
      type: "constant"
      value: 0.1
    }
  }
}
layer {
  name: "relu4"
  type: "ReLU"
  bottom: "conv4"
  top: "conv4"
}
layer {
  name: "conv5"
  type: "Convolution"
  bottom: "conv4"
  top: "conv5"
  param {
    lr_mult: 1
    decay_mult: 1
  }
  param {
    lr_mult: 2
    decay_mult: 0
  }
  convolution_param {
    num_output: 256
    pad: 1
    kernel_size: 3
    group: 2
    weight_filler {
      type: "gaussian"
      std: 0.01
    }
    bias_filler {
      type: "constant"
      value: 0.1
    }
  }
}
layer {
  name: "relu5"
  type: "ReLU"
  bottom: "conv5"
  top: "conv5"
}
layer {
  name: "pool5"
  type: "Pooling"
  bottom: "conv5"
  top: "pool5"
  pooling_param {
    pool: MAX
    kernel_size: 3
    stride: 2
  }
}
layer {
  name: "fc6"
  type: "InnerProduct"
  bottom: "pool5"
  top: "fc6"
  param {
    lr_mult: 1
    decay_mult: 1
  }
  param {
    lr_mult: 2
    decay_mult: 0
  }
  inner_product_param {
    num_output: 4096
    weight_filler {
      type: "gaussian"
      std: 0.005
    }
    bias_filler {
      type: "constant"
      value: 0.1
    }
  }
}
layer {
  name: "relu6"
  type: "ReLU"
  bottom: "fc6"
  top: "fc6"
}
layer {
  name: "drop6"
  type: "Dropout"
  bottom: "fc6"
  top: "fc6"
  dropout_param {
    dropout_ratio: 0.5
  }
}
layer {
  name: "fc7"
  type: "InnerProduct"
  bottom: "fc6"
  top: "fc7"
  param {
    lr_mult: 1
    decay_mult: 1
  }
  param {
    lr_mult: 2
    decay_mult: 0
  }
  inner_product_param {
    num_output: 1000
    weight_filler {
      type: "gaussian"
      std: 0.005
    }
    bias_filler {
      type: "constant"
      value: 0.1
    }
  }
}
layer {
  name: "relu7"
  type: "ReLU"
  bottom: "fc7"
  top: "fc7"
}
layer {
  name: "drop7"
  type: "Dropout"
  bottom: "fc7"
  top: "fc7"
  dropout_param {
    dropout_ratio: 0.5
  }
}
layer {
  name: "fc8"
  type: "InnerProduct"
  bottom: "fc7"
  top: "fc8"
  param {
    lr_mult: 1
    decay_mult: 1
  }
  param {
    lr_mult: 2
    decay_mult: 0
  }
  inner_product_param {
    num_output: 100
    weight_filler {
      type: "gaussian"
      std: 0.01
    }
    bias_filler {
      type: "constant"
      value: 0
    }
  }
}
layer {
  name: "loss"
  type: "SoftmaxWithLoss"
  bottom: "fc8"
  bottom: "label"
  top: "loss"
}
I0719 17:32:48.371304  6626 layer_factory.hpp:77] Creating layer data
I0719 17:32:48.371623  6626 net.cpp:91] Creating Layer data
I0719 17:32:48.371635  6626 net.cpp:399] data -> data
I0719 17:32:48.371665  6626 net.cpp:399] data -> label
I0719 17:32:48.371683  6626 data_transformer.cpp:25] Loading mean file from: /media/riseadmin/data2/amirsohail95/datasets/cifar100_lmdb/cifar100_mean.binaryproto
I0719 17:32:48.409024  6670 db_lmdb.cpp:35] Opened lmdb /media/riseadmin/data2/amirsohail95/datasets/cifar100_lmdb/cifar100_train_lmdb
I0719 17:32:48.442675  6626 data_layer.cpp:41] output data size: 250,3,32,32
I0719 17:32:48.452355  6626 net.cpp:141] Setting up data
I0719 17:32:48.452394  6626 net.cpp:148] Top shape: 250 3 32 32 (768000)
I0719 17:32:48.452400  6626 net.cpp:148] Top shape: 250 (250)
I0719 17:32:48.452404  6626 net.cpp:156] Memory required for data: 3073000
I0719 17:32:48.452416  6626 layer_factory.hpp:77] Creating layer conv1
I0719 17:32:48.452445  6626 net.cpp:91] Creating Layer conv1
I0719 17:32:48.452453  6626 net.cpp:425] conv1 <- data
I0719 17:32:48.452469  6626 net.cpp:399] conv1 -> conv1
I0719 17:32:49.112818  6626 net.cpp:141] Setting up conv1
I0719 17:32:49.112876  6626 net.cpp:148] Top shape: 250 96 30 30 (21600000)
I0719 17:32:49.112882  6626 net.cpp:156] Memory required for data: 89473000
I0719 17:32:49.112912  6626 layer_factory.hpp:77] Creating layer relu1
I0719 17:32:49.112934  6626 net.cpp:91] Creating Layer relu1
I0719 17:32:49.112939  6626 net.cpp:425] relu1 <- conv1
I0719 17:32:49.112946  6626 net.cpp:386] relu1 -> conv1 (in-place)
I0719 17:32:49.113479  6626 net.cpp:141] Setting up relu1
I0719 17:32:49.113492  6626 net.cpp:148] Top shape: 250 96 30 30 (21600000)
I0719 17:32:49.113495  6626 net.cpp:156] Memory required for data: 175873000
I0719 17:32:49.113499  6626 layer_factory.hpp:77] Creating layer norm1
I0719 17:32:49.113513  6626 net.cpp:91] Creating Layer norm1
I0719 17:32:49.113517  6626 net.cpp:425] norm1 <- conv1
I0719 17:32:49.113529  6626 net.cpp:399] norm1 -> norm1
I0719 17:32:49.114413  6626 net.cpp:141] Setting up norm1
I0719 17:32:49.114428  6626 net.cpp:148] Top shape: 250 96 30 30 (21600000)
I0719 17:32:49.114432  6626 net.cpp:156] Memory required for data: 262273000
I0719 17:32:49.114436  6626 layer_factory.hpp:77] Creating layer pool1
I0719 17:32:49.114446  6626 net.cpp:91] Creating Layer pool1
I0719 17:32:49.114450  6626 net.cpp:425] pool1 <- norm1
I0719 17:32:49.114456  6626 net.cpp:399] pool1 -> pool1
I0719 17:32:49.114501  6626 net.cpp:141] Setting up pool1
I0719 17:32:49.114509  6626 net.cpp:148] Top shape: 250 96 15 15 (5400000)
I0719 17:32:49.114512  6626 net.cpp:156] Memory required for data: 283873000
I0719 17:32:49.114517  6626 layer_factory.hpp:77] Creating layer conv2
I0719 17:32:49.114533  6626 net.cpp:91] Creating Layer conv2
I0719 17:32:49.114537  6626 net.cpp:425] conv2 <- pool1
I0719 17:32:49.114543  6626 net.cpp:399] conv2 -> conv2
I0719 17:32:49.122579  6626 net.cpp:141] Setting up conv2
I0719 17:32:49.122596  6626 net.cpp:148] Top shape: 250 256 15 15 (14400000)
I0719 17:32:49.122601  6626 net.cpp:156] Memory required for data: 341473000
I0719 17:32:49.122611  6626 layer_factory.hpp:77] Creating layer relu2
I0719 17:32:49.122617  6626 net.cpp:91] Creating Layer relu2
I0719 17:32:49.122620  6626 net.cpp:425] relu2 <- conv2
I0719 17:32:49.122627  6626 net.cpp:386] relu2 -> conv2 (in-place)
I0719 17:32:49.123438  6626 net.cpp:141] Setting up relu2
I0719 17:32:49.123452  6626 net.cpp:148] Top shape: 250 256 15 15 (14400000)
I0719 17:32:49.123456  6626 net.cpp:156] Memory required for data: 399073000
I0719 17:32:49.123461  6626 layer_factory.hpp:77] Creating layer norm2
I0719 17:32:49.123468  6626 net.cpp:91] Creating Layer norm2
I0719 17:32:49.123472  6626 net.cpp:425] norm2 <- conv2
I0719 17:32:49.123477  6626 net.cpp:399] norm2 -> norm2
I0719 17:32:49.123983  6626 net.cpp:141] Setting up norm2
I0719 17:32:49.123993  6626 net.cpp:148] Top shape: 250 256 15 15 (14400000)
I0719 17:32:49.123997  6626 net.cpp:156] Memory required for data: 456673000
I0719 17:32:49.124001  6626 layer_factory.hpp:77] Creating layer pool2
I0719 17:32:49.124009  6626 net.cpp:91] Creating Layer pool2
I0719 17:32:49.124013  6626 net.cpp:425] pool2 <- norm2
I0719 17:32:49.124018  6626 net.cpp:399] pool2 -> pool2
I0719 17:32:49.124052  6626 net.cpp:141] Setting up pool2
I0719 17:32:49.124058  6626 net.cpp:148] Top shape: 250 256 14 14 (12544000)
I0719 17:32:49.124060  6626 net.cpp:156] Memory required for data: 506849000
I0719 17:32:49.124065  6626 layer_factory.hpp:77] Creating layer conv3
I0719 17:32:49.124075  6626 net.cpp:91] Creating Layer conv3
I0719 17:32:49.124079  6626 net.cpp:425] conv3 <- pool2
I0719 17:32:49.124086  6626 net.cpp:399] conv3 -> conv3
I0719 17:32:49.136855  6626 net.cpp:141] Setting up conv3
I0719 17:32:49.136873  6626 net.cpp:148] Top shape: 250 384 14 14 (18816000)
I0719 17:32:49.136878  6626 net.cpp:156] Memory required for data: 582113000
I0719 17:32:49.136888  6626 layer_factory.hpp:77] Creating layer relu3
I0719 17:32:49.136894  6626 net.cpp:91] Creating Layer relu3
I0719 17:32:49.136898  6626 net.cpp:425] relu3 <- conv3
I0719 17:32:49.136904  6626 net.cpp:386] relu3 -> conv3 (in-place)
I0719 17:32:49.137413  6626 net.cpp:141] Setting up relu3
I0719 17:32:49.137423  6626 net.cpp:148] Top shape: 250 384 14 14 (18816000)
I0719 17:32:49.137426  6626 net.cpp:156] Memory required for data: 657377000
I0719 17:32:49.137431  6626 layer_factory.hpp:77] Creating layer conv4
I0719 17:32:49.137439  6626 net.cpp:91] Creating Layer conv4
I0719 17:32:49.137444  6626 net.cpp:425] conv4 <- conv3
I0719 17:32:49.137449  6626 net.cpp:399] conv4 -> conv4
I0719 17:32:49.148949  6626 net.cpp:141] Setting up conv4
I0719 17:32:49.148964  6626 net.cpp:148] Top shape: 250 384 14 14 (18816000)
I0719 17:32:49.148969  6626 net.cpp:156] Memory required for data: 732641000
I0719 17:32:49.148977  6626 layer_factory.hpp:77] Creating layer relu4
I0719 17:32:49.148986  6626 net.cpp:91] Creating Layer relu4
I0719 17:32:49.148990  6626 net.cpp:425] relu4 <- conv4
I0719 17:32:49.149000  6626 net.cpp:386] relu4 -> conv4 (in-place)
I0719 17:32:49.149508  6626 net.cpp:141] Setting up relu4
I0719 17:32:49.149520  6626 net.cpp:148] Top shape: 250 384 14 14 (18816000)
I0719 17:32:49.149523  6626 net.cpp:156] Memory required for data: 807905000
I0719 17:32:49.149528  6626 layer_factory.hpp:77] Creating layer conv5
I0719 17:32:49.149538  6626 net.cpp:91] Creating Layer conv5
I0719 17:32:49.149541  6626 net.cpp:425] conv5 <- conv4
I0719 17:32:49.149547  6626 net.cpp:399] conv5 -> conv5
I0719 17:32:49.159417  6626 net.cpp:141] Setting up conv5
I0719 17:32:49.159433  6626 net.cpp:148] Top shape: 250 256 14 14 (12544000)
I0719 17:32:49.159437  6626 net.cpp:156] Memory required for data: 858081000
I0719 17:32:49.159446  6626 layer_factory.hpp:77] Creating layer relu5
I0719 17:32:49.159453  6626 net.cpp:91] Creating Layer relu5
I0719 17:32:49.159457  6626 net.cpp:425] relu5 <- conv5
I0719 17:32:49.159464  6626 net.cpp:386] relu5 -> conv5 (in-place)
I0719 17:32:49.159976  6626 net.cpp:141] Setting up relu5
I0719 17:32:49.159986  6626 net.cpp:148] Top shape: 250 256 14 14 (12544000)
I0719 17:32:49.159989  6626 net.cpp:156] Memory required for data: 908257000
I0719 17:32:49.159993  6626 layer_factory.hpp:77] Creating layer pool5
I0719 17:32:49.160002  6626 net.cpp:91] Creating Layer pool5
I0719 17:32:49.160006  6626 net.cpp:425] pool5 <- conv5
I0719 17:32:49.160012  6626 net.cpp:399] pool5 -> pool5
I0719 17:32:49.160053  6626 net.cpp:141] Setting up pool5
I0719 17:32:49.160058  6626 net.cpp:148] Top shape: 250 256 7 7 (3136000)
I0719 17:32:49.160061  6626 net.cpp:156] Memory required for data: 920801000
I0719 17:32:49.160065  6626 layer_factory.hpp:77] Creating layer fc6
I0719 17:32:49.160076  6626 net.cpp:91] Creating Layer fc6
I0719 17:32:49.160079  6626 net.cpp:425] fc6 <- pool5
I0719 17:32:49.160086  6626 net.cpp:399] fc6 -> fc6
I0719 17:32:49.710233  6626 net.cpp:141] Setting up fc6
I0719 17:32:49.710288  6626 net.cpp:148] Top shape: 250 4096 (1024000)
I0719 17:32:49.710291  6626 net.cpp:156] Memory required for data: 924897000
I0719 17:32:49.710304  6626 layer_factory.hpp:77] Creating layer relu6
I0719 17:32:49.710315  6626 net.cpp:91] Creating Layer relu6
I0719 17:32:49.710320  6626 net.cpp:425] relu6 <- fc6
I0719 17:32:49.710328  6626 net.cpp:386] relu6 -> fc6 (in-place)
I0719 17:32:49.711066  6626 net.cpp:141] Setting up relu6
I0719 17:32:49.711076  6626 net.cpp:148] Top shape: 250 4096 (1024000)
I0719 17:32:49.711081  6626 net.cpp:156] Memory required for data: 928993000
I0719 17:32:49.711084  6626 layer_factory.hpp:77] Creating layer drop6
I0719 17:32:49.711094  6626 net.cpp:91] Creating Layer drop6
I0719 17:32:49.711097  6626 net.cpp:425] drop6 <- fc6
I0719 17:32:49.711104  6626 net.cpp:386] drop6 -> fc6 (in-place)
I0719 17:32:49.711135  6626 net.cpp:141] Setting up drop6
I0719 17:32:49.711143  6626 net.cpp:148] Top shape: 250 4096 (1024000)
I0719 17:32:49.711148  6626 net.cpp:156] Memory required for data: 933089000
I0719 17:32:49.711151  6626 layer_factory.hpp:77] Creating layer fc7
I0719 17:32:49.711160  6626 net.cpp:91] Creating Layer fc7
I0719 17:32:49.711163  6626 net.cpp:425] fc7 <- fc6
I0719 17:32:49.711174  6626 net.cpp:399] fc7 -> fc7
I0719 17:32:49.755249  6626 net.cpp:141] Setting up fc7
I0719 17:32:49.755292  6626 net.cpp:148] Top shape: 250 1000 (250000)
I0719 17:32:49.755296  6626 net.cpp:156] Memory required for data: 934089000
I0719 17:32:49.755311  6626 layer_factory.hpp:77] Creating layer relu7
I0719 17:32:49.755328  6626 net.cpp:91] Creating Layer relu7
I0719 17:32:49.755333  6626 net.cpp:425] relu7 <- fc7
I0719 17:32:49.755342  6626 net.cpp:386] relu7 -> fc7 (in-place)
I0719 17:32:49.757633  6626 net.cpp:141] Setting up relu7
I0719 17:32:49.757650  6626 net.cpp:148] Top shape: 250 1000 (250000)
I0719 17:32:49.757655  6626 net.cpp:156] Memory required for data: 935089000
I0719 17:32:49.757659  6626 layer_factory.hpp:77] Creating layer drop7
I0719 17:32:49.757670  6626 net.cpp:91] Creating Layer drop7
I0719 17:32:49.757675  6626 net.cpp:425] drop7 <- fc7
I0719 17:32:49.757690  6626 net.cpp:386] drop7 -> fc7 (in-place)
I0719 17:32:49.757735  6626 net.cpp:141] Setting up drop7
I0719 17:32:49.757741  6626 net.cpp:148] Top shape: 250 1000 (250000)
I0719 17:32:49.757745  6626 net.cpp:156] Memory required for data: 936089000
I0719 17:32:49.757750  6626 layer_factory.hpp:77] Creating layer fc8
I0719 17:32:49.757760  6626 net.cpp:91] Creating Layer fc8
I0719 17:32:49.757763  6626 net.cpp:425] fc8 <- fc7
I0719 17:32:49.757769  6626 net.cpp:399] fc8 -> fc8
I0719 17:32:49.758803  6626 net.cpp:141] Setting up fc8
I0719 17:32:49.758812  6626 net.cpp:148] Top shape: 250 100 (25000)
I0719 17:32:49.758816  6626 net.cpp:156] Memory required for data: 936189000
I0719 17:32:49.758824  6626 layer_factory.hpp:77] Creating layer loss
I0719 17:32:49.758832  6626 net.cpp:91] Creating Layer loss
I0719 17:32:49.758836  6626 net.cpp:425] loss <- fc8
I0719 17:32:49.758841  6626 net.cpp:425] loss <- label
I0719 17:32:49.758848  6626 net.cpp:399] loss -> loss
I0719 17:32:49.758863  6626 layer_factory.hpp:77] Creating layer loss
…
I0719 17:32:49.761409  6626 net.cpp:313] The NetState phase (1) differed from the phase (0) specified by a rule in layer data
I0719 17:32:49.761595  6626 net.cpp:49] Initializing net from parameters: 
name: "AlexNet"
state {
  phase: TEST
}
layer {
  name: "data"
  type: "Data"
  top: "data"
  top: "label"
  include {
    phase: TEST
  }
  transform_param {
    mirror: false
    crop_size: 32
    mean_file: "/media/riseadmin/data2/amirsohail95/datasets/cifar100_lmdb/cifar100_mean.binaryproto"
  }
  data_param {
    source: "/media/riseadmin/data2/amirsohail95/datasets/cifar100_lmdb/cifar100_test_lmdb"
    batch_size: 100
    backend: LMDB
  }
}
layer {
  name: "conv1"
  type: "Convolution"
  bottom: "data"
  top: "conv1"
  param {
    lr_mult: 1
    decay_mult: 1
  }
  param {
    lr_mult: 2
    decay_mult: 0
  }
  convolution_param {
    num_output: 96
    pad: 1
    kernel_size: 5
    stride: 1
    weight_filler {
      type: "gaussian"
      std: 0.01
    }
    bias_filler {
      type: "constant"
      value: 0
    }
  }
}
layer {
  name: "relu1"
  type: "ReLU"
  bottom: "conv1"
  top: "conv1"
}
layer {
  name: "norm1"
  type: "LRN"
  bottom: "conv1"
  top: "norm1"
  lrn_param {
    local_size: 5
    alpha: 0.0001
    beta: 0.75
  }
}
layer {
  name: "pool1"
  type: "Pooling"
  bottom: "norm1"
  top: "pool1"
  pooling_param {
    pool: MAX
    kernel_size: 3
    stride: 2
  }
}
layer {
  name: "conv2"
  type: "Convolution"
  bottom: "pool1"
  top: "conv2"
  param {
    lr_mult: 1
    decay_mult: 1
  }
  param {
    lr_mult: 2
    decay_mult: 0
  }
  convolution_param {
    num_output: 256
    pad: 2
    kernel_size: 5
    group: 2
    stride: 1
    weight_filler {
      type: "gaussian"
      std: 0.01
    }
    bias_filler {
      type: "constant"
      value: 0.1
    }
  }
}
layer {
  name: "relu2"
  type: "ReLU"
  bottom: "conv2"
  top: "conv2"
}
layer {
  name: "norm2"
  type: "LRN"
  bottom: "conv2"
  top: "norm2"
  lrn_param {
    local_size: 5
    alpha: 0.0001
    beta: 0.75
  }
}
layer {
  name: "pool2"
  type: "Pooling"
  bottom: "norm2"
  top: "pool2"
  pooling_param {
    pool: MAX
    kernel_size: 2
    stride: 1
  }
}
layer {
  name: "conv3"
  type: "Convolution"
  bottom: "pool2"
  top: "conv3"
  param {
    lr_mult: 1
    decay_mult: 1
  }
  param {
    lr_mult: 2
    decay_mult: 0
  }
  convolution_param {
    num_output: 384
    pad: 1
    kernel_size: 3
    weight_filler {
      type: "gaussian"
      std: 0.01
    }
    bias_filler {
      type: "constant"
      value: 0
    }
  }
}
layer {
  name: "relu3"
  type: "ReLU"
  bottom: "conv3"
  top: "conv3"
}
layer {
  name: "conv4"
  type: "Convolution"
  bottom: "conv3"
  top: "conv4"
  param {
    lr_mult: 1
    decay_mult: 1
  }
  param {
    lr_mult: 2
    decay_mult: 0
  }
  convolution_param {
    num_output: 384
    pad: 1
    kernel_size: 3
    group: 2
    weight_filler {
      type: "gaussian"
      std: 0.01
    }
    bias_filler {
      type: "constant"
      value: 0.1
    }
  }
}
layer {
  name: "relu4"
  type: "ReLU"
  bottom: "conv4"
  top: "conv4"
}
layer {
  name: "conv5"
  type: "Convolution"
  bottom: "conv4"
  top: "conv5"
  param {
    lr_mult: 1
    decay_mult: 1
  }
  param {
    lr_mult: 2
    decay_mult: 0
  }
  convolution_param {
    num_output: 256
    pad: 1
    kernel_size: 3
    group: 2
    weight_filler {
      type: "gaussian"
      std: 0.01
    }
    bias_filler {
      type: "constant"
      value: 0.1
    }
  }
}
layer {
  name: "relu5"
  type: "ReLU"
  bottom: "conv5"
  top: "conv5"
}
layer {
  name: "pool5"
  type: "Pooling"
  bottom: "conv5"
  top: "pool5"
  pooling_param {
    pool: MAX
    kernel_size: 3
    stride: 2
  }
}
layer {
  name: "fc6"
  type: "InnerProduct"
  bottom: "pool5"
  top: "fc6"
  param {
    lr_mult: 1
    decay_mult: 1
  }
  param {
    lr_mult: 2
    decay_mult: 0
  }
  inner_product_param {
    num_output: 4096
    weight_filler {
      type: "gaussian"
      std: 0.005
    }
    bias_filler {
      type: "constant"
      value: 0.1
    }
  }
}
layer {
  name: "relu6"
  type: "ReLU"
  bottom: "fc6"
  top: "fc6"
}
layer {
  name: "drop6"
  type: "Dropout"
  bottom: "fc6"
  top: "fc6"
  dropout_param {
    dropout_ratio: 0.5
  }
}
layer {
  name: "fc7"
  type: "InnerProduct"
  bottom: "fc6"
  top: "fc7"
  param {
    lr_mult: 1
    decay_mult: 1
  }
  param {
    lr_mult: 2
    decay_mult: 0
  }
  inner_product_param {
    num_output: 1000
    weight_filler {
      type: "gaussian"
      std: 0.005
    }
    bias_filler {
      type: "constant"
      value: 0.1
    }
  }
}
layer {
  name: "relu7"
  type: "ReLU"
  bottom: "fc7"
  top: "fc7"
}
layer {
  name: "drop7"
  type: "Dropout"
  bottom: "fc7"
  top: "fc7"
  dropout_param {
    dropout_ratio: 0.5
  }
}
layer {
  name: "fc8"
  type: "InnerProduct"
  bottom: "fc7"
  top: "fc8"
  param {
    lr_mult: 1
    decay_mult: 1
  }
  param {
    lr_mult: 2
    decay_mult: 0
  }
  inner_product_param {
    num_output: 100
    weight_filler {
      type: "gaussian"
      std: 0.01
    }
    bias_filler {
      type: "constant"
      value: 0
    }
  }
}
layer {
  name: "accuracy@1"
  type: "Accuracy"
  bottom: "fc8"
  bottom: "label"
  top: "accuracy@1"
  include {
    phase: TEST
  }
  accuracy_param {
    top_k: 1
  }
}
layer {
  name: "accuracy@5"
  type: "Accuracy"
  bottom: "fc8"
  bottom: "label"
  top: "accuracy@5"
  include {
    phase: TEST
  }
  accuracy_param {
    top_k: 5
  }
}
layer {
  name: "loss"
  type: "SoftmaxWithLoss"
  bottom: "fc8"
  bottom: "label"
  top: "loss"
}
I0719 17:32:49.761713  6626 layer_factory.hpp:77] Creating layer data
I0719 17:32:49.761847  6626 net.cpp:91] Creating Layer data
I0719 17:32:49.761862  6626 net.cpp:399] data -> data
I0719 17:32:49.761871  6626 net.cpp:399] data -> label
I0719 17:32:49.761881  6626 data_transformer.cpp:25] Loading mean file from: /media/riseadmin/data2/amirsohail95/datasets/cifar100_lmdb/cifar100_mean.binaryproto
I0719 17:32:49.799847  6672 db_lmdb.cpp:35] Opened lmdb /media/riseadmin/data2/amirsohail95/datasets/cifar100_lmdb/cifar100_test_lmdb
I0719 17:32:49.803385  6626 data_layer.cpp:41] output data size: 100,3,32,32
I0719 17:32:49.812608  6626 net.cpp:141] Setting up data
I0719 17:32:49.812654  6626 net.cpp:148] Top shape: 100 3 32 32 (307200)
I0719 17:32:49.812667  6626 net.cpp:148] Top shape: 100 (100)
I0719 17:32:49.812674  6626 net.cpp:156] Memory required for data: 1229200
I0719 17:32:49.812690  6626 layer_factory.hpp:77] Creating layer label_data_1_split
I0719 17:32:49.812717  6626 net.cpp:91] Creating Layer label_data_1_split
I0719 17:32:49.812737  6626 net.cpp:425] label_data_1_split <- label
I0719 17:32:49.812757  6626 net.cpp:399] label_data_1_split -> label_data_1_split_0
I0719 17:32:49.812779  6626 net.cpp:399] label_data_1_split -> label_data_1_split_1
I0719 17:32:49.812793  6626 net.cpp:399] label_data_1_split -> label_data_1_split_2
I0719 17:32:49.812983  6626 net.cpp:141] Setting up label_data_1_split
I0719 17:32:49.812997  6626 net.cpp:148] Top shape: 100 (100)
I0719 17:32:49.813006  6626 net.cpp:148] Top shape: 100 (100)
I0719 17:32:49.813015  6626 net.cpp:148] Top shape: 100 (100)
I0719 17:32:49.813024  6626 net.cpp:156] Memory required for data: 1230400
I0719 17:32:49.813031  6626 layer_factory.hpp:77] Creating layer conv1
I0719 17:32:49.813064  6626 net.cpp:91] Creating Layer conv1
I0719 17:32:49.813074  6626 net.cpp:425] conv1 <- data
I0719 17:32:49.813089  6626 net.cpp:399] conv1 -> conv1
I0719 17:32:49.818629  6626 net.cpp:141] Setting up conv1
I0719 17:32:49.818673  6626 net.cpp:148] Top shape: 100 96 30 30 (8640000)
I0719 17:32:49.818682  6626 net.cpp:156] Memory required for data: 35790400
I0719 17:32:49.818713  6626 layer_factory.hpp:77] Creating layer relu1
I0719 17:32:49.818729  6626 net.cpp:91] Creating Layer relu1
I0719 17:32:49.818738  6626 net.cpp:425] relu1 <- conv1
I0719 17:32:49.818753  6626 net.cpp:386] relu1 -> conv1 (in-place)
I0719 17:32:49.820309  6626 net.cpp:141] Setting up relu1
I0719 17:32:49.820327  6626 net.cpp:148] Top shape: 100 96 30 30 (8640000)
I0719 17:32:49.820330  6626 net.cpp:156] Memory required for data: 70350400
I0719 17:32:49.820335  6626 layer_factory.hpp:77] Creating layer norm1
I0719 17:32:49.820349  6626 net.cpp:91] Creating Layer norm1
I0719 17:32:49.820353  6626 net.cpp:425] norm1 <- conv1
I0719 17:32:49.820369  6626 net.cpp:399] norm1 -> norm1
I0719 17:32:49.820935  6626 net.cpp:141] Setting up norm1
I0719 17:32:49.820946  6626 net.cpp:148] Top shape: 100 96 30 30 (8640000)
I0719 17:32:49.820950  6626 net.cpp:156] Memory required for data: 104910400
I0719 17:32:49.820953  6626 layer_factory.hpp:77] Creating layer pool1
I0719 17:32:49.820963  6626 net.cpp:91] Creating Layer pool1
I0719 17:32:49.820967  6626 net.cpp:425] pool1 <- norm1
I0719 17:32:49.820972  6626 net.cpp:399] pool1 -> pool1
I0719 17:32:49.821022  6626 net.cpp:141] Setting up pool1
I0719 17:32:49.821040  6626 net.cpp:148] Top shape: 100 96 15 15 (2160000)
I0719 17:32:49.821046  6626 net.cpp:156] Memory required for data: 113550400
I0719 17:32:49.821049  6626 layer_factory.hpp:77] Creating layer conv2
I0719 17:32:49.821060  6626 net.cpp:91] Creating Layer conv2
I0719 17:32:49.821064  6626 net.cpp:425] conv2 <- pool1
I0719 17:32:49.821072  6626 net.cpp:399] conv2 -> conv2
I0719 17:32:49.830008  6626 net.cpp:141] Setting up conv2
I0719 17:32:49.830021  6626 net.cpp:148] Top shape: 100 256 15 15 (5760000)
I0719 17:32:49.830025  6626 net.cpp:156] Memory required for data: 136590400
I0719 17:32:49.830034  6626 layer_factory.hpp:77] Creating layer relu2
I0719 17:32:49.830040  6626 net.cpp:91] Creating Layer relu2
I0719 17:32:49.830044  6626 net.cpp:425] relu2 <- conv2
I0719 17:32:49.830051  6626 net.cpp:386] relu2 -> conv2 (in-place)
I0719 17:32:49.830590  6626 net.cpp:141] Setting up relu2
I0719 17:32:49.830601  6626 net.cpp:148] Top shape: 100 256 15 15 (5760000)
I0719 17:32:49.830605  6626 net.cpp:156] Memory required for data: 159630400
I0719 17:32:49.830608  6626 layer_factory.hpp:77] Creating layer norm2
I0719 17:32:49.830617  6626 net.cpp:91] Creating Layer norm2
I0719 17:32:49.830621  6626 net.cpp:425] norm2 <- conv2
I0719 17:32:49.830627  6626 net.cpp:399] norm2 -> norm2
I0719 17:32:49.831555  6626 net.cpp:141] Setting up norm2
I0719 17:32:49.831569  6626 net.cpp:148] Top shape: 100 256 15 15 (5760000)
I0719 17:32:49.831573  6626 net.cpp:156] Memory required for data: 182670400
I0719 17:32:49.831576  6626 layer_factory.hpp:77] Creating layer pool2
I0719 17:32:49.831584  6626 net.cpp:91] Creating Layer pool2
I0719 17:32:49.831588  6626 net.cpp:425] pool2 <- norm2
I0719 17:32:49.831593  6626 net.cpp:399] pool2 -> pool2
I0719 17:32:49.831630  6626 net.cpp:141] Setting up pool2
I0719 17:32:49.831636  6626 net.cpp:148] Top shape: 100 256 14 14 (5017600)
I0719 17:32:49.831640  6626 net.cpp:156] Memory required for data: 202740800
I0719 17:32:49.831643  6626 layer_factory.hpp:77] Creating layer conv3
I0719 17:32:49.831652  6626 net.cpp:91] Creating Layer conv3
I0719 17:32:49.831656  6626 net.cpp:425] conv3 <- pool2
I0719 17:32:49.831663  6626 net.cpp:399] conv3 -> conv3
I0719 17:32:49.842638  6626 net.cpp:141] Setting up conv3
I0719 17:32:49.842653  6626 net.cpp:148] Top shape: 100 384 14 14 (7526400)
I0719 17:32:49.842658  6626 net.cpp:156] Memory required for data: 232846400
I0719 17:32:49.842666  6626 layer_factory.hpp:77] Creating layer relu3
I0719 17:32:49.842672  6626 net.cpp:91] Creating Layer relu3
I0719 17:32:49.842676  6626 net.cpp:425] relu3 <- conv3
I0719 17:32:49.842684  6626 net.cpp:386] relu3 -> conv3 (in-place)
I0719 17:32:49.843271  6626 net.cpp:141] Setting up relu3
I0719 17:32:49.843317  6626 net.cpp:148] Top shape: 100 384 14 14 (7526400)
I0719 17:32:49.843365  6626 net.cpp:156] Memory required for data: 262952000
I0719 17:32:49.843370  6626 layer_factory.hpp:77] Creating layer conv4
I0719 17:32:49.843386  6626 net.cpp:91] Creating Layer conv4
I0719 17:32:49.843392  6626 net.cpp:425] conv4 <- conv3
I0719 17:32:49.843400  6626 net.cpp:399] conv4 -> conv4
I0719 17:32:49.860414  6626 net.cpp:141] Setting up conv4
I0719 17:32:49.860430  6626 net.cpp:148] Top shape: 100 384 14 14 (7526400)
I0719 17:32:49.860435  6626 net.cpp:156] Memory required for data: 293057600
I0719 17:32:49.860441  6626 layer_factory.hpp:77] Creating layer relu4
I0719 17:32:49.860448  6626 net.cpp:91] Creating Layer relu4
I0719 17:32:49.860452  6626 net.cpp:425] relu4 <- conv4
I0719 17:32:49.860457  6626 net.cpp:386] relu4 -> conv4 (in-place)
I0719 17:32:49.861311  6626 net.cpp:141] Setting up relu4
I0719 17:32:49.861325  6626 net.cpp:148] Top shape: 100 384 14 14 (7526400)
I0719 17:32:49.861328  6626 net.cpp:156] Memory required for data: 323163200
I0719 17:32:49.861331  6626 layer_factory.hpp:77] Creating layer conv5
I0719 17:32:49.861342  6626 net.cpp:91] Creating Layer conv5
I0719 17:32:49.861346  6626 net.cpp:425] conv5 <- conv4
I0719 17:32:49.861361  6626 net.cpp:399] conv5 -> conv5
I0719 17:32:49.871543  6626 net.cpp:141] Setting up conv5
I0719 17:32:49.871558  6626 net.cpp:148] Top shape: 100 256 14 14 (5017600)
I0719 17:32:49.871562  6626 net.cpp:156] Memory required for data: 343233600
I0719 17:32:49.871574  6626 layer_factory.hpp:77] Creating layer relu5
I0719 17:32:49.871582  6626 net.cpp:91] Creating Layer relu5
I0719 17:32:49.871585  6626 net.cpp:425] relu5 <- conv5
I0719 17:32:49.871589  6626 net.cpp:386] relu5 -> conv5 (in-place)
I0719 17:32:49.872107  6626 net.cpp:141] Setting up relu5
I0719 17:32:49.872118  6626 net.cpp:148] Top shape: 100 256 14 14 (5017600)
I0719 17:32:49.872122  6626 net.cpp:156] Memory required for data: 363304000
I0719 17:32:49.872125  6626 layer_factory.hpp:77] Creating layer pool5
I0719 17:32:49.872134  6626 net.cpp:91] Creating Layer pool5
I0719 17:32:49.872138  6626 net.cpp:425] pool5 <- conv5
I0719 17:32:49.872143  6626 net.cpp:399] pool5 -> pool5
I0719 17:32:49.872205  6626 net.cpp:141] Setting up pool5
I0719 17:32:49.872211  6626 net.cpp:148] Top shape: 100 256 7 7 (1254400)
I0719 17:32:49.872215  6626 net.cpp:156] Memory required for data: 368321600
I0719 17:32:49.872218  6626 layer_factory.hpp:77] Creating layer fc6
I0719 17:32:49.872225  6626 net.cpp:91] Creating Layer fc6
I0719 17:32:49.872232  6626 net.cpp:425] fc6 <- pool5
I0719 17:32:49.872237  6626 net.cpp:399] fc6 -> fc6
I0719 17:32:50.381994  6626 net.cpp:141] Setting up fc6
I0719 17:32:50.382043  6626 net.cpp:148] Top shape: 100 4096 (409600)
I0719 17:32:50.382048  6626 net.cpp:156] Memory required for data: 369960000
I0719 17:32:50.382061  6626 layer_factory.hpp:77] Creating layer relu6
I0719 17:32:50.382074  6626 net.cpp:91] Creating Layer relu6
I0719 17:32:50.382081  6626 net.cpp:425] relu6 <- fc6
I0719 17:32:50.382091  6626 net.cpp:386] relu6 -> fc6 (in-place)
I0719 17:32:50.383463  6626 net.cpp:141] Setting up relu6
I0719 17:32:50.383478  6626 net.cpp:148] Top shape: 100 4096 (409600)
I0719 17:32:50.383482  6626 net.cpp:156] Memory required for data: 371598400
I0719 17:32:50.383487  6626 layer_factory.hpp:77] Creating layer drop6
I0719 17:32:50.383496  6626 net.cpp:91] Creating Layer drop6
I0719 17:32:50.383500  6626 net.cpp:425] drop6 <- fc6
I0719 17:32:50.383508  6626 net.cpp:386] drop6 -> fc6 (in-place)
I0719 17:32:50.383570  6626 net.cpp:141] Setting up drop6
I0719 17:32:50.383576  6626 net.cpp:148] Top shape: 100 4096 (409600)
I0719 17:32:50.383579  6626 net.cpp:156] Memory required for data: 373236800
I0719 17:32:50.383584  6626 layer_factory.hpp:77] Creating layer fc7
I0719 17:32:50.383595  6626 net.cpp:91] Creating Layer fc7
I0719 17:32:50.383599  6626 net.cpp:425] fc7 <- fc6
I0719 17:32:50.383605  6626 net.cpp:399] fc7 -> fc7
I0719 17:32:50.421950  6626 net.cpp:141] Setting up fc7
I0719 17:32:50.421983  6626 net.cpp:148] Top shape: 100 1000 (100000)
I0719 17:32:50.421988  6626 net.cpp:156] Memory required for data: 373636800
I0719 17:32:50.421998  6626 layer_factory.hpp:77] Creating layer relu7
I0719 17:32:50.422006  6626 net.cpp:91] Creating Layer relu7
I0719 17:32:50.422017  6626 net.cpp:425] relu7 <- fc7
I0719 17:32:50.422024  6626 net.cpp:386] relu7 -> fc7 (in-place)
I0719 17:32:50.422607  6626 net.cpp:141] Setting up relu7
I0719 17:32:50.422617  6626 net.cpp:148] Top shape: 100 1000 (100000)
I0719 17:32:50.422621  6626 net.cpp:156] Memory required for data: 374036800
I0719 17:32:50.422626  6626 layer_factory.hpp:77] Creating layer drop7
I0719 17:32:50.422634  6626 net.cpp:91] Creating Layer drop7
I0719 17:32:50.422638  6626 net.cpp:425] drop7 <- fc7
I0719 17:32:50.422643  6626 net.cpp:386] drop7 -> fc7 (in-place)
I0719 17:32:50.422672  6626 net.cpp:141] Setting up drop7
I0719 17:32:50.422678  6626 net.cpp:148] Top shape: 100 1000 (100000)
I0719 17:32:50.422683  6626 net.cpp:156] Memory required for data: 374436800
I0719 17:32:50.422685  6626 layer_factory.hpp:77] Creating layer fc8
I0719 17:32:50.422694  6626 net.cpp:91] Creating Layer fc8
I0719 17:32:50.422698  6626 net.cpp:425] fc8 <- fc7
I0719 17:32:50.422703  6626 net.cpp:399] fc8 -> fc8
I0719 17:32:50.423640  6626 net.cpp:141] Setting up fc8
I0719 17:32:50.423660  6626 net.cpp:148] Top shape: 100 100 (10000)
I0719 17:32:50.423663  6626 net.cpp:156] Memory required for data: 374476800
I0719 17:32:50.423669  6626 layer_factory.hpp:77] Creating layer fc8_fc8_0_split
I0719 17:32:50.423679  6626 net.cpp:91] Creating Layer fc8_fc8_0_split
I0719 17:32:50.423682  6626 net.cpp:425] fc8_fc8_0_split <- fc8
I0719 17:32:50.423687  6626 net.cpp:399] fc8_fc8_0_split -> fc8_fc8_0_split_0
I0719 17:32:50.423693  6626 net.cpp:399] fc8_fc8_0_split -> fc8_fc8_0_split_1
I0719 17:32:50.423702  6626 net.cpp:399] fc8_fc8_0_split -> fc8_fc8_0_split_2
I0719 17:32:50.423749  6626 net.cpp:141] Setting up fc8_fc8_0_split
I0719 17:32:50.423754  6626 net.cpp:148] Top shape: 100 100 (10000)
I0719 17:32:50.423758  6626 net.cpp:148] Top shape: 100 100 (10000)
I0719 17:32:50.423763  6626 net.cpp:148] Top shape: 100 100 (10000)
I0719 17:32:50.423765  6626 net.cpp:156] Memory required for data: 374596800
I0719 17:32:50.423768  6626 layer_factory.hpp:77] Creating layer accuracy@1
I0719 17:32:50.423777  6626 net.cpp:91] Creating Layer accuracy@1
I0719 17:32:50.423781  6626 net.cpp:425] accuracy@1 <- fc8_fc8_0_split_0
I0719 17:32:50.423785  6626 net.cpp:425] accuracy@1 <- label_data_1_split_0
I0719 17:32:50.423790  6626 net.cpp:399] accuracy@1 -> accuracy@1
…
